diff --git a/xla/service/gpu/model/gpu_performance_model.cc b/xla/service/gpu/model/gpu_performance_model.cc
index 956bc9f926..1d9dbfb4a9 100644
--- a/xla/service/gpu/model/gpu_performance_model.cc
+++ b/xla/service/gpu/model/gpu_performance_model.cc
@@ -97,6 +97,19 @@ EstimateRunTimeData GpuPerformanceModel::EstimateRunTimeForInstructionImpl(
   absl::Duration exec_time =
       CombineComputeAndMemoryAccessTime(compute_time, read_time + write_time);
 
+  auto register_usage = GpuPerformanceModelBase::EstimateRegisterUsage(instr);
+  if (instr->parent()
+          ->parent()
+          ->config()
+          .debug_options()
+          .xla_enable_enzyme_comms_opt()) {
+    absl::Duration spill_penalty =
+        GpuPerformanceModelBase::CalculateSpillPenalty(
+            device_info_, register_usage, launch_dimensions.num_blocks(),
+            launch_dimensions.num_threads_per_block());
+    exec_time += spill_penalty;
+  }
+
   EstimateRunTimeData runtime_data = {flops,     bytes_read, bytes_written,
                                       read_time, write_time, compute_time,
                                       exec_time};
@@ -193,6 +206,38 @@ absl::Duration GpuPerformanceModel::EstimateRunTimeForFusionImpl(
   auto exec_time =
       CombineComputeAndMemoryAccessTime(compute_time, read_time + write_time);
 
+  auto register_usage_consumer =
+      GpuPerformanceModelBase::EstimateRegisterUsage(consumer);
+  auto register_usage_producer =
+      GpuPerformanceModelBase::EstimateRegisterUsage(producer);
+
+  // We add the registers per thread together. We also merge the use count
+  // vectors since spilling takes from either.
+  int64_t registers_per_thread = register_usage_consumer.registers_per_thread +
+                                 register_usage_producer.registers_per_thread;
+  std::vector<int64_t> bytes_accessed;
+  bytes_accessed.reserve(register_usage_consumer.bytes_accessed.size() +
+                         register_usage_producer.bytes_accessed.size());
+  bytes_accessed.insert(bytes_accessed.end(),
+                        register_usage_consumer.bytes_accessed.begin(),
+                        register_usage_consumer.bytes_accessed.end());
+  bytes_accessed.insert(bytes_accessed.end(),
+                        register_usage_producer.bytes_accessed.begin(),
+                        register_usage_producer.bytes_accessed.end());
+
+  if (producer->parent()
+          ->parent()
+          ->config()
+          .debug_options()
+          .xla_enable_enzyme_comms_opt()) {
+    absl::Duration spill_penalty =
+        GpuPerformanceModelBase::CalculateSpillPenalty(
+            device_info_, {registers_per_thread, bytes_accessed},
+            launch_dimensions.num_blocks(),
+            launch_dimensions.num_threads_per_block());
+    exec_time += spill_penalty;
+  }
+
   VLOG(3) << "Runtime data for producer-consumer fusion:\n"
           << " producer: " << producer->name() << "\n"
           << " consumer: " << consumer->name() << "\n"
diff --git a/xla/service/gpu/model/gpu_performance_model_base.cc b/xla/service/gpu/model/gpu_performance_model_base.cc
index 3c2e2eafbd..552f51401b 100644
--- a/xla/service/gpu/model/gpu_performance_model_base.cc
+++ b/xla/service/gpu/model/gpu_performance_model_base.cc
@@ -392,6 +392,161 @@ absl::Duration GpuPerformanceModelBase::CombineComputeAndMemoryAccessTime(
          std::min(compute_time, memory_access_time) * kMemoryComputeParallelism;
 }
 
+namespace {
+bool ProducesRegister(const HloInstruction* instr) {
+  switch (instr->opcode()) {
+    case HloOpcode::kConstant:
+    case HloOpcode::kBroadcast:
+    case HloOpcode::kReshape:
+    case HloOpcode::kBitcast:
+    case HloOpcode::kTuple:
+    case HloOpcode::kGetTupleElement:
+      return false;
+    default:
+      return true;
+  }
+}
+}  // namespace
+
+/*static*/
+GpuPerformanceModelBase::RegisterUsage
+GpuPerformanceModelBase::EstimateRegisterUsage(const HloInstruction* instr) {
+  if (instr->opcode() != HloOpcode::kFusion) {
+    int64_t byte_size = 0;
+    if (instr->shape().IsArray()) {
+      byte_size =
+          ShapeUtil::ByteSizeOfPrimitiveType(instr->shape().element_type());
+    }
+    return {1, {1 * byte_size}};  // Base case for non-fusion ops.
+  }
+
+  // A very rough heuristic for register pressure within a fusion.
+  // We start with a base number of registers for loop counters and indexing.
+  int64_t base_registers = 16;
+
+  // Calculate maximum number of live values using a simulated schedule
+  // (currently just the topological sort order already present in
+  // fused_instructions).
+
+  // 1. Keep track of how many times each instruction is used, to know when its
+  // value dies.
+  absl::flat_hash_map<const HloInstruction*, int64_t> use_counts;
+  for (const HloInstruction* fused_instr : instr->fused_instructions()) {
+    for (const HloInstruction* operand : fused_instr->operands()) {
+      use_counts[operand]++;
+    }
+  }
+
+  // 2. Simulate execution and track live values
+  int64_t current_live_values = 0;
+  int64_t max_live_values = 0;
+
+  std::vector<int64_t> spilling_bytes_accessed;
+
+  for (const HloInstruction* fused_instr : instr->fused_instructions()) {
+    if (ProducesRegister(fused_instr)) {
+      current_live_values++;
+      // We collect the bytes accessed associated with this instruction's
+      // result. (1 store + N loads) * element_size
+      int64_t uses = use_counts[fused_instr];
+      if (fused_instr->shape().IsTuple()) {
+        continue;
+      }
+      int64_t element_size = ShapeUtil::ByteSizeOfPrimitiveType(
+          fused_instr->shape().element_type());
+      spilling_bytes_accessed.push_back((1 + uses) * element_size);
+    }
+
+    // Update max live values
+    max_live_values = std::max(max_live_values, current_live_values);
+
+    // Consume operands: if this is the last use, the operand value dies
+    for (const HloInstruction* operand : fused_instr->operands()) {
+      auto it = use_counts.find(operand);
+      if (it != use_counts.end()) {
+        it->second--;
+        if (it->second == 0) {
+          if (ProducesRegister(operand)) {
+            current_live_values--;
+          }
+        }
+      }
+    }
+  }
+
+  // Assume approximately 1 physical register per live HLO value.
+  return {base_registers + max_live_values, spilling_bytes_accessed};
+}
+
+/*static*/
+absl::Duration GpuPerformanceModelBase::CalculateSpillPenalty(
+    const se::DeviceDescription& gpu_device_info,
+    const RegisterUsage& register_usage, int64_t num_blocks,
+    int64_t num_threads_per_block) {
+  int64_t registers_per_thread = register_usage.registers_per_thread;
+  // Try to derive the hard limit for PTX from device information.
+  // NVIDIA GPUs typically support up to 255 registers per thread.
+  // We can approximate the thread limit as the block limit divided by warp
+  // size, capped at a known architecture max like 255.
+  int64_t max_registers_per_thread = 255;
+  if (gpu_device_info.registers_per_block_limit() > 0 &&
+      gpu_device_info.threads_per_warp() > 0) {
+    int64_t derived_limit = gpu_device_info.registers_per_block_limit() /
+                            gpu_device_info.threads_per_warp();
+    // Often the thread limit is smaller than the block limit / warp size
+    // allows, but it won't exceed the derived limit. We cap at 255 as a safe
+    // PTX default.
+    max_registers_per_thread = std::min<int64_t>(255, derived_limit);
+  }
+
+  if (registers_per_thread <= max_registers_per_thread) {
+    // Also consider if we use too many registers preventing multiple blocks per
+    // SM. For many GPUs 64K registers are available per SM.
+    int64_t registers_per_block = registers_per_thread * num_threads_per_block;
+    if (registers_per_block <= gpu_device_info.registers_per_block_limit()) {
+      return absl::ZeroDuration();
+    }
+
+    // Penalty if we limit occupancy due to register usage, but don't spill.
+    return GpuPerformanceModelBase::kSpillBasePenalty;
+  }
+
+  // Major penalty for spilling.
+  int64_t spilled_registers = registers_per_thread - max_registers_per_thread;
+
+  // Assume each spilled register causes extra local memory reads/writes.
+  // We track the number of bytes accessed by these spilled values.
+  std::vector<int64_t> bytes_accessed = register_usage.bytes_accessed;
+  std::sort(bytes_accessed.begin(), bytes_accessed.end());
+
+  // We remove the (max_registers_per_thread) most frequently used items since
+  // they are in registers. We sum the rest as spilled registers.
+  int64_t total_spill_bytes_per_thread = 0;
+  for (int i = 0;
+       i < std::min<int64_t>(spilled_registers, bytes_accessed.size()); ++i) {
+    total_spill_bytes_per_thread += bytes_accessed[i];
+  }
+
+  // Multiply by the actual number of blocks and threads. Total bytes =
+  // bytes_accessed_per_thread * grids_size. We read total_spill_bytes using
+  // ReadTimeWithDRAMHeuristic which accounts for coalescing block sizes.
+  int64_t total_spill_bytes =
+      total_spill_bytes_per_thread * num_threads_per_block * num_blocks;
+
+  absl::Duration memory_access_latency = ReadTimeWithDRAMHeuristic(
+      gpu_device_info, num_blocks, /*n_bytes_net=*/total_spill_bytes,
+      /*n_bytes_total=*/total_spill_bytes, PrimitiveType::F32,
+      /*hbm_bandwidth_utilization_rate=*/1.0);
+
+  // To get the per-thread latency, we divide by the total number of threads,
+  // then add it to our base penalty.
+  int64_t total_threads = num_blocks * num_threads_per_block;
+  if (total_threads == 0) return GpuPerformanceModelBase::kSpillBasePenalty;
+
+  return GpuPerformanceModelBase::kSpillBasePenalty +
+         memory_access_latency / total_threads;
+}
+
 /*static*/
 void GpuPerformanceModelBase::VLogOperandRead(const HloInstruction* operand,
                                               int64_t n_bytes_total,
diff --git a/xla/service/gpu/model/gpu_performance_model_base.h b/xla/service/gpu/model/gpu_performance_model_base.h
index ea9c07234b..46916d2673 100644
--- a/xla/service/gpu/model/gpu_performance_model_base.h
+++ b/xla/service/gpu/model/gpu_performance_model_base.h
@@ -138,6 +138,8 @@ class GpuPerformanceModelBase {
   static constexpr absl::Duration kKernelLaunchOverhead = absl::Microseconds(1);
   static constexpr absl::Duration kNcclKernelLaunchOverhead =
       absl::Microseconds(5);
+  // Base penalty for spilling and causing reduced blocks per SM.
+  static constexpr absl::Duration kSpillBasePenalty = absl::Microseconds(1);
   static constexpr float kL2CacheSpeedup = 2.5;
   static constexpr float kL1CacheSpeedup = 8;
   // Factor for how much parallelism between compute and memory accesses should
@@ -224,6 +226,22 @@ class GpuPerformanceModelBase {
   static absl::Duration CombineComputeAndMemoryAccessTime(
       absl::Duration compute_time, absl::Duration memory_access_time);
 
+  struct RegisterUsage {
+    int64_t registers_per_thread;
+    std::vector<int64_t> bytes_accessed;
+  };
+
+  // Estimates the number of registers per thread and their use counts for a
+  // given HLO computation.
+  static RegisterUsage EstimateRegisterUsage(const HloInstruction* instr);
+
+  // Calculates a spill penalty duration based on register usage and max
+  // threshold.
+  static absl::Duration CalculateSpillPenalty(
+      const se::DeviceDescription& gpu_device_info,
+      const RegisterUsage& register_usage, int64_t num_blocks,
+      int64_t num_threads_per_block);
+
   // Logs estimates for the operand read if VLOG is enabled.
   static void VLogOperandRead(const HloInstruction* operand,
                               int64_t n_bytes_total, int64_t n_bytes_net,
diff --git a/xla/service/gpu/model/gpu_performance_model_test.cc b/xla/service/gpu/model/gpu_performance_model_test.cc
index 0bbb353c1e..fdbe069604 100644
--- a/xla/service/gpu/model/gpu_performance_model_test.cc
+++ b/xla/service/gpu/model/gpu_performance_model_test.cc
@@ -144,6 +144,253 @@ ENTRY e {
   EXPECT_NEAR(absl::ToInt64Microseconds(indexing_t.time_unfused), 1, 1);
 }
 
+TEST_F(GpuPerformanceModelTest, RegisterSpillPenalty) {
+  absl::string_view hlo_string = R"(
+HloModule m
+
+f {
+  p0 = f32[100] parameter(0)
+  exp1 = f32[100] exponential(p0)
+  log1 = f32[100] log(exp1)
+  exp2 = f32[100] exponential(log1)
+  log2 = f32[100] log(exp2)
+  exp3 = f32[100] exponential(log2)
+  log3 = f32[100] log(exp3)
+  exp4 = f32[100] exponential(log3)
+  log4 = f32[100] log(exp4)
+  exp5 = f32[100] exponential(log4)
+  log5 = f32[100] log(exp5)
+  exp6 = f32[100] exponential(log5)
+  log6 = f32[100] log(exp6)
+  exp7 = f32[100] exponential(log6)
+  log7 = f32[100] log(exp7)
+  exp8 = f32[100] exponential(log7)
+  log8 = f32[100] log(exp8)
+  exp9 = f32[100] exponential(log8)
+  log9 = f32[100] log(exp9)
+  exp10 = f32[100] exponential(log9)
+  log10 = f32[100] log(exp10)
+  exp11 = f32[100] exponential(log10)
+  log11 = f32[100] log(exp11)
+  exp12 = f32[100] exponential(log11)
+  log12 = f32[100] log(exp12)
+  exp13 = f32[100] exponential(log12)
+  log13 = f32[100] log(exp13)
+  exp14 = f32[100] exponential(log13)
+  log14 = f32[100] log(exp14)
+  exp15 = f32[100] exponential(log14)
+  log15 = f32[100] log(exp15)
+  exp16 = f32[100] exponential(log15)
+  log16 = f32[100] log(exp16)
+  exp17 = f32[100] exponential(log16)
+  log17 = f32[100] log(exp17)
+  exp18 = f32[100] exponential(log17)
+  log18 = f32[100] log(exp18)
+  exp19 = f32[100] exponential(log18)
+  log19 = f32[100] log(exp19)
+  exp20 = f32[100] exponential(log19)
+  log20 = f32[100] log(exp20)
+  
+  exp21 = f32[100] exponential(log20)
+  log21 = f32[100] log(exp21)
+  exp22 = f32[100] exponential(log21)
+  log22 = f32[100] log(exp22)
+  exp23 = f32[100] exponential(log22)
+  log23 = f32[100] log(exp23)
+  exp24 = f32[100] exponential(log23)
+  log24 = f32[100] log(exp24)
+  exp25 = f32[100] exponential(log24)
+  log25 = f32[100] log(exp25)
+  exp26 = f32[100] exponential(log25)
+  log26 = f32[100] log(exp26)
+  exp27 = f32[100] exponential(log26)
+  log27 = f32[100] log(exp27)
+  exp28 = f32[100] exponential(log27)
+  log28 = f32[100] log(exp28)
+  exp29 = f32[100] exponential(log28)
+  log29 = f32[100] log(exp29)
+  exp30 = f32[100] exponential(log29)
+  log30 = f32[100] log(exp30)
+  exp31 = f32[100] exponential(log30)
+  log31 = f32[100] log(exp31)
+  exp32 = f32[100] exponential(log31)
+  log32 = f32[100] log(exp32)
+  exp33 = f32[100] exponential(log32)
+  log33 = f32[100] log(exp33)
+  exp34 = f32[100] exponential(log33)
+  log34 = f32[100] log(exp34)
+  exp35 = f32[100] exponential(log34)
+  log35 = f32[100] log(exp35)
+  exp36 = f32[100] exponential(log35)
+  log36 = f32[100] log(exp36)
+  exp37 = f32[100] exponential(log36)
+  log37 = f32[100] log(exp37)
+  exp38 = f32[100] exponential(log37)
+  log38 = f32[100] log(exp38)
+  exp39 = f32[100] exponential(log38)
+  log39 = f32[100] log(exp39)
+  exp40 = f32[100] exponential(log39)
+  log40 = f32[100] log(exp40)
+
+  ROOT a0 = f32[100] add(log40, p0)
+}
+
+ENTRY e {
+  p0 = f32[100] parameter(0)
+  ROOT r.1 = f32[100] fusion(p0), kind=kLoop, calls=f
+}
+)";
+  HloModuleConfig config;
+  config.mutable_debug_options().set_xla_enable_enzyme_comms_opt(true);
+  TF_ASSERT_OK_AND_ASSIGN(auto module,
+                          ParseAndReturnVerifiedModule(hlo_string, config));
+  HloInstruction* root = module->entry_computation()->root_instruction();
+  ASSERT_IS_OK(root->Accept(&analysis_));
+
+  auto t = EstimateRunTimes(root);
+  // With the new liveness analysis, this straight-line chain actually has VERY
+  // LOW register pressure because values are consumed immediately. We used to
+  // over-estimate this as spilling (>40us), but now it shouldn't spill! It
+  // should be extremely fast (unfused time around 1-5us).
+  EXPECT_LT(absl::ToInt64Microseconds(t.time_unfused), 10);
+}
+
+TEST_F(GpuPerformanceModelTest, TrueRegisterSpillPenalty) {
+  absl::string_view hlo_string = R"(
+HloModule m
+
+f {
+  p0 = f32[100] parameter(0)
+  p1 = f32[100] parameter(1)
+  
+  v1 = f32[100] exponential(p0)
+  v2 = f32[100] exponential(p1)
+  v3 = f32[100] exponential(v1)
+  v4 = f32[100] exponential(v2)
+  v5 = f32[100] exponential(v3)
+  v6 = f32[100] exponential(v4)
+  v7 = f32[100] exponential(v5)
+  v8 = f32[100] exponential(v6)
+  v9 = f32[100] exponential(v7)
+  v10 = f32[100] exponential(v8)
+  v11 = f32[100] exponential(v9)
+  v12 = f32[100] exponential(v10)
+  v13 = f32[100] exponential(v11)
+  v14 = f32[100] exponential(v12)
+  v15 = f32[100] exponential(v13)
+  v16 = f32[100] exponential(v14)
+  v17 = f32[100] exponential(v15)
+  v18 = f32[100] exponential(v16)
+  v19 = f32[100] exponential(v17)
+  v20 = f32[100] exponential(v18)
+  v21 = f32[100] exponential(v19)
+  v22 = f32[100] exponential(v20)
+  v23 = f32[100] exponential(v21)
+  v24 = f32[100] exponential(v22)
+  v25 = f32[100] exponential(v23)
+  v26 = f32[100] exponential(v24)
+  v27 = f32[100] exponential(v25)
+  v28 = f32[100] exponential(v26)
+  v29 = f32[100] exponential(v27)
+  v30 = f32[100] exponential(v28)
+  v31 = f32[100] exponential(v29)
+  v32 = f32[100] exponential(v30)
+  v33 = f32[100] exponential(v31)
+  v34 = f32[100] exponential(v32)
+  v35 = f32[100] exponential(v33)
+  v36 = f32[100] exponential(v34)
+  v37 = f32[100] exponential(v35)
+  v38 = f32[100] exponential(v36)
+  v39 = f32[100] exponential(v37)
+  v40 = f32[100] exponential(v38)
+  
+  v41 = f32[100] exponential(v39)
+  v42 = f32[100] exponential(v40)
+  v43 = f32[100] exponential(v41)
+  v44 = f32[100] exponential(v42)
+  v45 = f32[100] exponential(v43)
+  v46 = f32[100] exponential(v44)
+  v47 = f32[100] exponential(v45)
+  v48 = f32[100] exponential(v46)
+  v49 = f32[100] exponential(v47)
+  v50 = f32[100] exponential(v48)
+  v51 = f32[100] exponential(v49)
+  v52 = f32[100] exponential(v50)
+  v53 = f32[100] exponential(v51)
+  v54 = f32[100] exponential(v52)
+  v55 = f32[100] exponential(v53)
+  v56 = f32[100] exponential(v54)
+  v57 = f32[100] exponential(v55)
+  v58 = f32[100] exponential(v56)
+  v59 = f32[100] exponential(v57)
+  v60 = f32[100] exponential(v58)
+  v61 = f32[100] exponential(v59)
+  v62 = f32[100] exponential(v60)
+  v63 = f32[100] exponential(v61)
+  v64 = f32[100] exponential(v62)
+  v65 = f32[100] exponential(v63)
+  v66 = f32[100] exponential(v64)
+  v67 = f32[100] exponential(v65)
+  v68 = f32[100] exponential(v66)
+  v69 = f32[100] exponential(v67)
+  v70 = f32[100] exponential(v68)
+  v71 = f32[100] exponential(v69)
+  v72 = f32[100] exponential(v70)
+  v73 = f32[100] exponential(v71)
+  v74 = f32[100] exponential(v72)
+  v75 = f32[100] exponential(v73)
+  v76 = f32[100] exponential(v74)
+  v77 = f32[100] exponential(v75)
+  v78 = f32[100] exponential(v76)
+  v79 = f32[100] exponential(v77)
+  v80 = f32[100] exponential(v78)
+
+  t1 = (f32[100], f32[100], f32[100], f32[100], f32[100], f32[100], f32[100], f32[100], f32[100], f32[100]) tuple(v1, v2, v3, v4, v5, v6, v7, v8, v9, v10)
+  t2 = (f32[100], f32[100], f32[100], f32[100], f32[100], f32[100], f32[100], f32[100], f32[100], f32[100]) tuple(v11, v12, v13, v14, v15, v16, v17, v18, v19, v20)
+  t3 = (f32[100], f32[100], f32[100], f32[100], f32[100], f32[100], f32[100], f32[100], f32[100], f32[100]) tuple(v21, v22, v23, v24, v25, v26, v27, v28, v29, v30)
+  t4 = (f32[100], f32[100], f32[100], f32[100], f32[100], f32[100], f32[100], f32[100], f32[100], f32[100]) tuple(v31, v32, v33, v34, v35, v36, v37, v38, v39, v40)
+  t5 = (f32[100], f32[100], f32[100], f32[100], f32[100], f32[100], f32[100], f32[100], f32[100], f32[100]) tuple(v41, v42, v43, v44, v45, v46, v47, v48, v49, v50)
+  t6 = (f32[100], f32[100], f32[100], f32[100], f32[100], f32[100], f32[100], f32[100], f32[100], f32[100]) tuple(v51, v52, v53, v54, v55, v56, v57, v58, v59, v60)
+  t7 = (f32[100], f32[100], f32[100], f32[100], f32[100], f32[100], f32[100], f32[100], f32[100], f32[100]) tuple(v61, v62, v63, v64, v65, v66, v67, v68, v69, v70)
+  t8 = (f32[100], f32[100], f32[100], f32[100], f32[100], f32[100], f32[100], f32[100], f32[100], f32[100]) tuple(v71, v72, v73, v74, v75, v76, v77, v78, v79, v80)
+  
+  ROOT a0 = ((f32[100], f32[100], f32[100], f32[100], f32[100], f32[100], f32[100], f32[100], f32[100], f32[100]),
+             (f32[100], f32[100], f32[100], f32[100], f32[100], f32[100], f32[100], f32[100], f32[100], f32[100]),
+             (f32[100], f32[100], f32[100], f32[100], f32[100], f32[100], f32[100], f32[100], f32[100], f32[100]),
+             (f32[100], f32[100], f32[100], f32[100], f32[100], f32[100], f32[100], f32[100], f32[100], f32[100]),
+             (f32[100], f32[100], f32[100], f32[100], f32[100], f32[100], f32[100], f32[100], f32[100], f32[100]),
+             (f32[100], f32[100], f32[100], f32[100], f32[100], f32[100], f32[100], f32[100], f32[100], f32[100]),
+             (f32[100], f32[100], f32[100], f32[100], f32[100], f32[100], f32[100], f32[100], f32[100], f32[100]),
+             (f32[100], f32[100], f32[100], f32[100], f32[100], f32[100], f32[100], f32[100], f32[100], f32[100])) tuple(t1, t2, t3, t4, t5, t6, t7, t8)
+}
+
+ENTRY e {
+  p0 = f32[100] parameter(0)
+  p1 = f32[100] parameter(1)
+  ROOT r.1 = ((f32[100], f32[100], f32[100], f32[100], f32[100], f32[100], f32[100], f32[100], f32[100], f32[100]),
+             (f32[100], f32[100], f32[100], f32[100], f32[100], f32[100], f32[100], f32[100], f32[100], f32[100]),
+             (f32[100], f32[100], f32[100], f32[100], f32[100], f32[100], f32[100], f32[100], f32[100], f32[100]),
+             (f32[100], f32[100], f32[100], f32[100], f32[100], f32[100], f32[100], f32[100], f32[100], f32[100]),
+             (f32[100], f32[100], f32[100], f32[100], f32[100], f32[100], f32[100], f32[100], f32[100], f32[100]),
+             (f32[100], f32[100], f32[100], f32[100], f32[100], f32[100], f32[100], f32[100], f32[100], f32[100]),
+             (f32[100], f32[100], f32[100], f32[100], f32[100], f32[100], f32[100], f32[100], f32[100], f32[100]),
+             (f32[100], f32[100], f32[100], f32[100], f32[100], f32[100], f32[100], f32[100], f32[100], f32[100])) fusion(p0, p1), kind=kLoop, calls=f
+}
+)";
+  HloModuleConfig config;
+  config.mutable_debug_options().set_xla_enable_enzyme_comms_opt(true);
+  TF_ASSERT_OK_AND_ASSIGN(auto module,
+                          ParseAndReturnVerifiedModule(hlo_string, config));
+  HloInstruction* root = module->entry_computation()->root_instruction();
+  ASSERT_IS_OK(root->Accept(&analysis_));
+
+  auto t = EstimateRunTimes(root);
+  // Un-fused time due to spilling.
+  // We added ~80 registers of live values.
+  EXPECT_GT(absl::ToInt64Microseconds(t.time_unfused), 2);
+  EXPECT_LT(absl::ToInt64Microseconds(t.time_unfused), 30);
+}
+
 TEST_F(GpuPerformanceModelTest, LargeReadWrite) {
   absl::string_view hlo_string = R"(
 HloModule m
